models/final_ssl_proj_head.pth (torch, 659605 bytes, 4 tensors)

net.0.weight f4 [256, 512]
0	0xbb8ef194	-0.0043622945
1	0x3c5210b2	0.012821363
2	0x3b793603	0.0038026578
3	0xbcdb05ea	-0.026736218
4	0xbd09dea2	-0.033659585
5	0x3b35fe6d	0.0027770058
6	0xbce1726f	-0.027520387
7	0x3d0bb4a9	0.034107838
8	0xbd287cde	-0.041134708
9	0x3c2b0d02	0.010440113
10	0xb88ea15a	-6.801142e-05
11	0x3ba0b8ba	0.0049048336
12	0xbd1a38f8	-0.037651986
13	0xbb5013f4	-0.0031750174
14	0xbd306564	-0.043065444
15	0xbc8d6f0b	-0.017264863
16	0xbd4132d8	-0.04716763
17	0x3d0406e3	0.03223313
18	0x3c0d1980	0.008612037
19	0xbcf911f7	-0.030404074
20	0xbd0c79be	-0.03429579
21	0xbd27cb39	-0.040965293
22	0xbcae6a2e	-0.021290865
23	0xbd156b38	-0.036479205
24	0xbc9b13bf	-0.018930314
25	0xbad2d688	-0.0016085664
26	0x3c365a63	0.011129948
27	0x3be8fce9	0.0071102274
28	0xbb2d7464	-0.002646708
29	0x3c061a76	0.00818502
30	0xbcec12c3	-0.02881754
31	0xbd136e11	-0.03599364
32	0x3cc77977	0.024349911
33	0xbd1ed8f3	-0.038781118
34	0xbcb1e9bb	-0.021717897
35	0x3cdea8c7	0.027180089
36	0x3d511cc3	0.05105282
37	0xbd4cc959	-0.049996708
38	0xbc1d71dc	-0.009609666
39	0x3c35b64b	0.011090825
40	0xbc6efe87	-0.014587051
41	0x3c7206ce	0.01477213
42	0x3c92c43b	0.017915836
43	0xbcedc1c7	-0.029023064
44	0x3ce7be25	0.02828891
45	0x3cc4601c	0.02397161
46	0x3d1d9668	0.038473517
47	0xbd3da4f5	-0.046299893
48	0x3ce6f2f9	0.02819203
49	0xbcf08292	-0.029359136
50	0xbc77ceff	-0.015125035
51	0x3d0f9752	0.03505642
52	0xbcd6d383	-0.026223904
53	0xbd1c051b	-0.038090806
54	0xbb58f401	-0.0033104422
55	0xbd391caf	-0.04519337
56	0x3a90bb51	0.0011042153
57	0xbc99a620	-0.018755972
58	0x3d079b9e	0.033107392
59	0x3cdfe974	0.027332999
60	0x3c6062c1	0.01369542
61	0x3cea9c54	0.028638996
62	0xbd1ea737	-0.038733687
63	0xbcc4af77	-0.02400945
64	0x3d02ef0a	0.031966247
65	0x39814e67	0.00024663212
66	0x3c1a3ec8	0.009414382
67	0xbc8a32ab	-0.016869863
68	0xbc374f52	-0.011188345
69	0xbce3a2ed	-0.02778765
70	0x3d256adf	0.040385123
71	0x3ca2d496	0.01987676
72	0xbd396b15	-0.045268137
73	0x3d0d9159	0.034562442
74	0xbc21db8c	-0.009879004
75	0x3bb4eec2	0.005521626
76	0xbc60ed1e	-0.013728408
77	0xbc1a358d	-0.009412182
78	0x3d10e12c	0.03537099
79	0x3d249807	0.040184047
80	0xbc3432ba	-0.010998422
81	0x3d2fc838	0.042915553
82	0x3bdb171e	0.0066861054
83	0xbd24f71e	-0.04027473
84	0xbd0057c4	-0.0313337
85	0xbc00b3e4	-0.007855389
86	0xbcf404f4	-0.029787518
87	0x3ca0fa3f	0.019650577
88	0xbd120df8	-0.035657853
89	0xbd0c7b7d	-0.034297455
90	0x3d0f1799	0.034934614
91	0x3a84bb3a	0.0010126599
92	0xbcda9360	-0.026681602
93	0xbd330e93	-0.04371507
94	0x3cdbd636	0.026835542
95	0xbd2f6854	-0.042824104
96	0x3cb05336	0.021524053
97	0xbd0f6343	-0.035006773
98	0xbcf1f071	-0.029533597
99	0x3c6fdd28	0.01464013
100	0x3b892ec8	0.004186485
101	0xbcad77f0	-0.021175355
102	0x3d06a29b	0.032869916
103	0x3cb9f86e	0.022701468
104	0xbd501b7d	-0.050807465
105	0xbce3a9c8	-0.027790919
106	0x3c72c549	0.014817544
107	0x38d35398	0.000100768346
108	0x3cb01546	0.021494519
109	0xbd27907a	-0.040909268
110	0xbd1ad9d4	-0.037805393
111	0x3cb9e9ae	0.022694435
112	0xbbbc52e0	-0.005747184
113	0xbc4fd50b	-0.012685071
114	0x3d12e1a0	0.035859704
115	0xbd24484a	-0.040108003
116	0xbc770c8d	-0.015078676
117	0xbad71436	-0.0016409222
118	0xbd0001b2	-0.031251617
119	0x3b852279	0.0040629474
120	0x3c8c139f	0.0170992
121	0x3c57ed74	0.013179172
122	0x3d4377bf	0.04772162
123	0x3c420a28	0.011843242
124	0x3d078e06	0.03309443
125	0xbcf78a17	-0.030217214
126	0x3c42a8fc	0.011881109
127	0x3d1ab2cd	0.037768174
128	0x3c455a38	0.012045436
129	0x3d0d1944	0.034447923
130	0xbcd31155	-0.0257651
131	0xbcd5b151	-0.026085528
132	0xbcf841ea	-0.030304868
133	0x3d2bed1d	0.041974176
134	0xbca9ed78	-0.020743117
135	0xbd0023ca	-0.03128413
136	0x3b1ab07f	0.0023603735
137	0xba1ecebf	-0.0006058029
138	0x3d0ff123	0.035142075
139	0x3c009f92	0.0078505445
140	0xbd1861f5	-0.037202794
141	0xbcee5ed7	-0.029097958
142	0x3c0e23cd	0.008675528
143	0x3cc92ef7	0.024558527
144	0xba361cca	-0.0006947039
145	0x3bfc5884	0.0077009816
146	0xbd2fc9ad	-0.042916942
147	0xbcab1836	-0.020885568
148	0x3c8a4797	0.01687984
149	0x3d272a69	0.04081193
150	0x3ce4c0c0	0.027923942
151	0x3b2fef58	0.002684554
152	0x3c1cf558	0.009579979
153	0x3cbb32c2	0.022851352
154	0xbc3e0d47	-0.011599845
155	0xbcf5e256	-0.030015152
156	0xbd301a5d	-0.042993892
157	0xbd171e16	-0.036893927
158	0x3b97c273	0.0046313345
159	0xbb894d49	-0.0041901213
160	0xbcff256e	-0.031145778
161	0xbbbbff50	-0.0057372227
162	0x3cff5e4b	0.031172892
163	0xbd171d26	-0.036893032
164	0xbc0af4ae	-0.008481188
165	0x3cc747ee	0.024326291
166	0xbce2ec17	-0.027700467
167	0x3cfa642b	0.030565342
168	0xbc89ab9a	-0.016805459
169	0xbca1c220	-0.019745886
170	0xbd152b88	-0.036418468
171	0x3d061fa5	0.032745022
172	0x3d024f99	0.03181419
173	0x3aa2cf69	0.0012421432
174	0x3b770673	0.0037693053
175	0xbc6f55e7	-0.014607883
176	0x3ce072e1	0.027398529
177	0xbccd7d01	-0.02508402
178	0x3aec82e2	0.0018044377
179	0x3c4137f4	0.011793125
180	0x3c8970b6	0.016777378
181	0x3cf72f29	0.030173855
182	0x3c73adb5	0.014872958
183	0xbc87f683	-0.016597038
184	0xbcac3d34	-0.021025278
185	0xbcd761d7	-0.02629177
186	0xbccd3562	-0.025049869
187	0xbc481b4f	-0.012213542
188	0x3d35c53b	0.044377547
189	0xbbcc3a19	-0.0062325117
190	0x3ce5a72a	0.028033812
191	0xbd16e40a	-0.03683857
192	0xbcfc0a62	-0.03076667
193	0xbc8d3474	-0.017236926
194	0x3ca53ec6	0.020171534
195	0xbb9a4f30	-0.004709147
196	0x3d0f8b52	0.035044976
197	0x3c895d92	0.01676825
198	0x3d1fcd3b	0.039014082
199	0xbcd6af23	-0.026206559
200	0x3b6547f4	0.0034985514
201	0xbd32a713	-0.043616366
202	0xbb8e46b9	-0.004341927
203	0x3c0cf25c	0.008602705
204	0xbd12f607	-0.03587916
205	0xbc42e9aa	-0.01189653
206	0xbd44ebea	-0.048076548
207	0xbb1e56b1	-0.0024160559
208	0xbd293d3f	-0.041318174
209	0x3c9fa1d4	0.019486345
210	0xbd1d769c	-0.038443193
211	0x3c918867	0.017765237
212	0xbc75a8d1	-0.014993862
213	0xbc0a6165	-0.008446072
214	0x3c96e1a7	0.018418146
215	0xbd0de9e0	-0.03464687
216	0xbd1c2bca	-0.038127698
217	0x3d061a60	0.032739997
218	0x3c658512	0.014008777
219	0xbc02710b	-0.007961522
220	0x3cd6caf6	0.026219826
221	0x3d24046f	0.04004329
222	0x3c4048f4	0.011736143
223	0xbc73dc4c	-0.014884066
224	0x3b5d8fd0	0.0033807643
225	0xbd0be3f7	-0.03415295
226	0x3d0d6033	0.03451557
227	0x3b975878	0.0046187006
228	0xbcc3c4c8	-0.023897544
229	0xb933d10f	-0.0001714865
230	0xbc10e4bd	-0.008843598
231	0x3d185977	0.037194695
232	0x3c1b11cb	0.009464691
233	0x3d1c202a	0.03811661
234	0x3c65b2f1	0.014019714
235	0x3c93de92	0.018050466
236	0xbd34593d	-0.044030417
237	0x3d05df76	0.032683812
238	0xbcbcd993	-0.023052966
239	0xbc940edc	-0.018073492
240	0x3d121706	0.035666488
241	0xbc758bda	-0.0149869565
242	0x3cb86f35	0.022513965
243	0x3c8e652d	0.017382229
244	0xbcf56342	-0.029954556
245	0xbc9e20d2	-0.01930276
246	0xbc5c7617	-0.013455889
247	0xbbfe79b0	-0.007765971
248	0xbb00f1f1	-0.0019675458
249	0x3d1c000e	0.03808599
250	0xbcb84e92	-0.022498403
251	0xbd1f4f1e	-0.03889381
252	0x3b926a1b	0.004468215
253	0xbd410c3e	-0.047130816
254	0x3b17477a	0.0023083375
255	0xbc6e1edb	-0.014533724

net.0.bias f4 [256]
0	0x3c160fa2	0.009159001
1	0xbd0521c9	-0.032502923
2	0xbc67b94e	-0.014143301
3	0x3d05eef5	0.03269859
4	0x3ccec2d4	0.025239386
5	0xbd15ef46	-0.036605142
6	0x3c86b22c	0.01644238
7	0xbd03021e	-0.03198444
8	0x3c5eaeb1	0.013591454
9	0xbcf66314	-0.030076541
10	0xb93e79c3	-0.00018165172
11	0x3c81015c	0.015747719
12	0xbc86f0e4	-0.016472287
13	0xbcccf9dd	-0.025021488
14	0xbd20d44e	-0.03926497
15	0xbce9a38c	-0.028520368
16	0xbd12bafc	-0.035822853
17	0xbd2741bc	-0.040834174
18	0xbcd2a02a	-0.025711138
19	0x3c632bb8	0.013865404
20	0x3c2740d4	0.010208327
21	0xbd3c0493	-0.0459028
22	0xbd054077	-0.03253218
23	0xbce5d0e6	-0.028053712
24	0x3b367831	0.0027842636
25	0xbd1faff4	-0.03898616
26	0x3d1ebaec	0.03875248
27	0xbca8d7de	-0.020610746
28	0xbc484b26	-0.012224948
29	0xbd456aa9	-0.048197422
30	0x3cfc1fbc	0.03077685
31	0xbca9942b	-0.020700535
32	0xbd097426	-0.033558033
33	0xbd389140	-0.045060396
34	0x3ce4b456	0.027918022
35	0xbd0c7e18	-0.03429994
36	0xbc3bc737	-0.011461071
37	0xbcd42e95	-0.025901118
38	0xbd232889	-0.03983358
39	0x3c754d77	0.014972082
40	0x3cfd508f	0.030922202
41	0xbd3e9936	-0.046532832
42	0xbd3f322c	-0.046678707
43	0x3c89a143	0.016800528
44	0x3ce3ebdc	0.027822427
45	0xbbc912e9	-0.0061362875
46	0xbd292b17	-0.04130086
47	0x3b34b7df	0.0027575416
48	0xbd1c7fd3	-0.03820784
49	0xbd168ed9	-0.036757324
50	0x3b4e4af7	0.0031477788
51	0xbc96659d	-0.018359
52	0x3ca974a2	0.020685498
53	0xbcdc7501	-0.02691126
54	0xbd3323d9	-0.04373536
55	0xbce4c692	-0.027926717
56	0x3c0e4cab	0.008685271
57	0xbcba4726	-0.022739004
58	0xbd3c2eaf	-0.04594296
59	0xbc17879d	-0.009248641
60	0x3c5818ec	0.013189536
61	0xbbda63bd	-0.0066647218
62	0xbcfd559a	-0.030924607
63	0x3cc2f124	0.023796625
64	0xbd240c6d	-0.040050913
65	0xbd45343a	-0.04814551
66	0x3c8e907c	0.01740288
67	0x3b691087	0.003556283
68	0xbcf14d7a	-0.029455889
69	0x3d488ee7	0.048964407
70	0x3d1713b1	0.036884014
71	0xbd2b3da1	-0.04180682
72	0x3b9aa843	0.0047197654
73	0x3d1f5b64	0.038905516
74	0xbb1ab2ae	-0.0023605037
75	0xbc2dd24a	-0.010609219
76	0xbc4c48e4	-0.01246855
77	0xbcf926da	-0.030414034
78	0x3d007064	0.031357184
79	0x3ccdaac5	0.025105843
80	0xbd201562	-0.039082892
81	0xbce97a2d	-0.02850064
82	0xbd1f9622	-0.038961537
83	0xbd1827fd	-0.03714751
84	0xbcf426c0	-0.029803634
85	0x3ccf0eaa	0.025275547
86	0xbd2396e9	-0.03993884
87	0xbd06ca6c	-0.03290789
88	0x3cfc2148	0.030777588
89	0xbd580725	-0.05274119
90	0x3bae94f1	0.005327814
91	0xbd2ea94e	-0.04264193
92	0xbcfe0fda	-0.031013418
93	0x3cd0b991	0.02547911
94	0x3cc2a456	0.023760002
95	0xbcb93f39	-0.022613155
96	0x3cf2fbaf	0.029661028
97	0xbcab504e	-0.020912316
98	0x3c0621fd	0.008186814
99	0x3ca3571d	0.019939
100	0x3b98af28	0.004659552
101	0x3c52696d	0.012842518
102	0x3cd5edec	0.026114427
103	0xbd2bb3fd	-0.041919697
104	0xbbdfca1b	-0.006829513
105	0x3c6f0192	0.014587777
106	0x3c215639	0.009847217
107	0xbcbe9fa0	-0.023269475
108	0xbd5b74ac	-0.053578064
109	0xbd281253	-0.0410331
110	0xbceedfce	-0.029159453
111	0x3c4605b1	0.012086318
112	0x39958ea0	0.00028525759
113	0xbbd62e7c	-0.006536303
114	0xbc5f0ff7	-0.013614646
115	0x3cfe19d3	0.031018173
116	0x3cfe79af	0.031063883
117	0xbb64fd94	-0.0034941183
118	0xbca0e04a	-0.0196382
119	0x3bea9ae2	0.0071595768
120	0x3c645274	0.013935674
121	0x3a8362b8	0.0010023927
122	0xbc1ce352	-0.009575682
123	0x3cb6e4a7	0.022325827
124	0x3c94b376	0.01815198
125	0xbccb951e	-0.024851378
126	0x3cf0a264	0.029374309
127	0xbd3b4467	-0.04571953
128	0xbd05fe72	-0.03271336
129	0xbcf4ab1a	-0.029866744
130	0x3d165cba	0.036709525
131	0x3c7d50b0	0.015461132
132	0xbcaced30	-0.021109194
133	0x3bf18439	0.0073704985
134	0xbcfcf15e	-0.030876812
135	0x3bcfeaf4	0.0063451473
136	0x3d374656	0.044744812
137	0x3c9480f1	0.01812789
138	0xb9be3b23	-0.00036283684
139	0xbd0d9c6e	-0.03457301
140	0x3ac8d565	0.0015322386
141	0xbcc2d398	-0.023782536
142	0xbbf77181	-0.0075513725
143	0x3c2c279a	0.010507489
144	0xbc511644	-0.012761656
145	0x3d0db38a	0.03459505
146	0xbd0b059d	-0.0339409
147	0x3d06d97c	0.032922253
148	0x3cd58832	0.02606592
149	0x3caafe38	0.020873174
150	0xbcf8e105	-0.030380735
151	0xbce525cd	-0.027972126
152	0xbd516218	-0.05111894
153	0xbd0a7829	-0.033806
154	0xbd270441	-0.04077554
155	0x3cf5bd61	0.02999753
156	0x3d1fad79	0.038983796
157	0xb9d12f27	-0.00039898718
158	0x3cddd883	0.02708078
159	0xbca32e75	-0.019919613
160	0x3c0f5b3e	0.008749781
161	0x3cd48cf9	0.025946127
162	0xbc6589da	-0.014009917
163	0xbcd69bee	-0.0261974
164	0xbc292714	-0.010324258
165	0x3b9cb94c	0.0047828313
166	0xbd13ab85	-0.036052246
167	0xbcb2192b	-0.021740517
168	0x3cbd11f1	0.023079844
169	0xbcbef0fd	-0.023308272
170	0xbc3e18c8	-0.011602588
171	0xbcf98f03	-0.030463701
172	0x3d06f870	0.032951772
173	0xbd284f69	-0.041091356
174	0xbd015eeb	-0.03158466
175	0xbad6650b	-0.0016357017
176	0xbc5f1cea	-0.0136177335
177	0xbd2a00f8	-0.04150483
178	0xbc8af826	-0.01696403
179	0x3a99fad6	0.0011747729
180	0xbcb1a720	-0.021686137
181	0xbbce2da8	-0.0062920637
182	0xbca03938	-0.019558534
183	0x3c497867	0.012296773
184	0xbd215859	-0.039390896
185	0x3d05a8ba	0.032631613
186	0xbceb0c22	-0.028692309
187	0x3cd82b9c	0.026387982
188	0xbc8bb9ea	-0.017056424
189	0x3c9d633c	0.019212358
190	0xbcdb9087	-0.026802314
191	0xbb8c7f5a	-0.0042876424
192	0xbd356a7d	-0.04429101
193	0xbc96a8f1	-0.018391104
194	0xbd0130bf	-0.03154063
195	0x3d068e9a	0.03285084
196	0xba8a4163	-0.0010548051
197	0x37042a13	7.877609e-06
198	0x3d066c22	0.032817967
199	0x3c9942d1	0.018708618
200	0xbacabcd4	-0.0015467652
201	0xbd263082	-0.040573604
202	0x3cf6e9be	0.030140754
203	0x3d01632a	0.03158871
204	0xbc66835a	-0.014069403
205	0x3ca65fb0	0.0203093
206	0x3cef19a8	0.029187039
207	0x3b914314	0.004433045
208	0x3c933b1e	0.017972525
209	0xbc9bc9d8	-0.019017145
210	0xbb6a171b	-0.0035719338
211	0xbb125e3e	-0.0022334005
212	0x3c82b7c5	0.015956769
213	0xbc3dac88	-0.011576779
214	0x3cc7c45f	0.02438563
215	0xbd0fec5c	-0.03513752
216	0xbd37e1fa	-0.044893242
217	0x3b744486	0.0037272288
218	0x3d15367a	0.036428906
219	0x3d0d6644	0.034521356
220	0x3cfa93d6	0.030588072
221	0x3ce89f01	0.028396131
222	0x3cd8e322	0.026475493
223	0x3ce43334	0.027856447
224	0xbcd5b4b3	-0.02608714
225	0x39e81ecf	0.00044273442
226	0x3c572fd1	0.013133959
227	0xbcf6001d	-0.03002935
228	0x3c3b117a	0.011417741
229	0x3d1de0aa	0.038544334
230	0xbc7a19a6	-0.015264904
231	0xbc8e3877	-0.017360909
232	0x3c18f644	0.009336058
233	0xbd119572	-0.035542913
234	0xbd6223c7	-0.0552099
235	0xbbdec0a9	-0.006797869
236	0xbca847a4	-0.020541973
237	0xbcba5829	-0.022747116
238	0x3ba8f6f9	0.0051563946
239	0xbcc215ac	-0.023691975
240	0x3c7b62c8	0.0153433755
241	0xbcefaba3	-0.029256647
242	0x3b40c1d9	0.0029412417
243	0xbd3a825b	-0.045534473
244	0x3c8297ca	0.01594152
245	0xbd6f0f21	-0.058364037
246	0xbcf1f9c0	-0.029538035
247	0x3b15f074	0.0022878917
248	0x3c900d09	0.01758434
249	0x3cd61d6d	0.026137078
250	0x3cf09755	0.029369036
251	0xbb6c0525	-0.0036013809
252	0x3cb34e42	0.021887902
253	0xbcfe56d2	-0.031047259
254	0x38c1a3fa	9.2335e-05
255	0xbd27c82b	-0.04096238

net.2.weight f4 [128, 256]
0	0xbd24e05f	-0.04025304
1	0xbd0e258a	-0.03470377
2	0x3c0368ba	0.008020574
3	0xbc6a735a	-0.0143097285
4	0xbd5d2d0e	-0.053998046
5	0x3d3752cb	0.044756692
6	0xbd3c08c0	-0.045906782
7	0x3dda8fd4	0.10671964
8	0xbd9c820f	-0.07641994
9	0x3d708077	0.058716264
10	0x3cc6dc0c	0.024274848
11	0xbd4fa6a9	-0.05069605
12	0x3da952a2	0.08267714
13	0x3d35851d	0.0443164
14	0xbd844832	-0.06459083
15	0xbcf81fc7	-0.03028859
16	0xbd89dd43	-0.067316554
17	0xbb2ccf94	-0.0026368843
18	0xbd05fa6f	-0.032709535
19	0xbcfa6ca0	-0.030569375
20	0x3d844fc3	0.06460526
21	0xbcc5beba	-0.024138797
22	0x3d6a718e	0.0572372
23	0xbd848df6	-0.064723894
24	0x3d5a801b	0.053344827
25	0xbd828e1d	-0.06374762
26	0x3ca1f997	0.019772334
27	0x3cabefaf	0.020988313
28	0xbcfe0321	-0.031007351
29	0xbd2719e3	-0.040796172
30	0xbd11e29d	-0.035616506
31	0xbd213224	-0.03935446
32	0xbca67346	-0.020318639
33	0x3d78931f	0.06068718
34	0x3cd33f0f	0.025786905
35	0xbcc8f765	-0.02453203
36	0x3d055521	0.03255189
37	0xbd857037	-0.06515544
38	0xbbb56973	-0.005536252
39	0x3d4e5cb3	0.050381374
40	0xbad5bb7a	-0.0016306483
41	0xbd161dac	-0.03664939
42	0x3ccd5798	0.025066182
43	0xbd9e869d	-0.07740519
44	0x3c48bb42	0.012251677
45	0x3c0a6353	0.008446532
46	0xbd74a889	-0.05973104
47	0xbd18f6b4	-0.03734465
48	0xbb878b28	-0.0041364618
49	0x3d170fe5	0.036880393
50	0xbc2f59dd	-0.010702577
51	0xbcb94bf2	-0.022619221
52	0x3d2bacc2	0.0419128
53	0xbcec7592	-0.028864656
54	0xbd0fd465	-0.035114665
55	0x3d7d0fb3	0.06178255
56	0xbd34d2cf	-0.044146355
57	0xbd03193c	-0.032006487
58	0xbd5874fb	-0.052845936
59	0xbc09e2b3	-0.008415866
60	0xbd1728f7	-0.0369043
61	0xbd7edc29	-0.06222168
62	0x3cf59672	0.029978964
63	0x3cbb3efa	0.022857178
64	0x3cc02a55	0.023457685
65	0x3cfc0df4	0.030768372
66	0xbd46fba8	-0.04857984
67	0xbd2f0e17	-0.042738046
68	0x3d906247	0.07049995
69	0xbd5e9691	-0.05434281
70	0xbd013860	-0.031547904
71	0x3db00df7	0.085964136
72	0xbd4aee4b	-0.04954366
73	0xbd87d203	-0.066318534
74	0x3c88aed8	0.016684934
75	0xbcd3c5a2	-0.025851075
76	0x3d347891	0.044060294
77	0xbcc34731	-0.023837658
78	0xbce5bd06	-0.028044235
79	0x3d785795	0.0606304
80	0xbd01909f	-0.031632062
81	0xbcd617b5	-0.026134351
82	0x3c8ea2ae	0.017411556
83	0x3d139aa0	0.036036134
84	0xbb6dcb99	-0.0036284684
85	0x3d8b6517	0.06806391
86	0xbcf1fd04	-0.029539593
87	0xbc72669d	-0.014794973
88	0xbbc935eb	-0.0061404607
89	0x3d528607	0.05139735
90	0x3ca77b5b	0.020444563
91	0xbc6d485c	-0.014482584
92	0x3d21841c	0.03943263
93	0xbd68f26e	-0.056871824
94	0x3d3c5c83	0.045986664
95	0xbd5b3b05	-0.053523082
96	0x3d3f3425	0.04668059
97	0x3b360ed1	0.0027779827
98	0x3c8fecf5	0.017569045
99	0x3cdff91d	0.027340466
100	0x3ccf37aa	0.025295097
101	0xbcdd0c77	-0.026983483
102	0xbda0f257	-0.07858723
103	0x3d448095	0.047974188
104	0x3d44c0bb	0.048035365
105	0x3c3cfad2	0.01153441
106	0xbc0b65d0	-0.008508161
107	0x3d325568	0.04353848
108	0xbce780fb	-0.028259745
109	0xb9b2ee9b	-0.0003412858
110	0xbd64cd3e	-0.055859797
111	0xbd091ddd	-0.033475745
112	0x3c6f6dc4	0.0146135725
113	0xbd156d6f	-0.036481317
114	0x3d2e1ef4	0.042509988
115	0x3d21793a	0.03942225
116	0x3cb08844	0.021549352
117	0xbbf0547c	-0.00733429
118	0x3c264295	0.01014771
119	0xbd935211	-0.07193387
120	0x3d235001	0.03987122
121	0x3c60816f	0.013702734
122	0x3cd6e0ed	0.0262303
123	0x3d6e020e	0.05810743
124	0x3d549900	0.051903725
125	0x3c31d5aa	0.010854164
126	0x3c1577a7	0.009122766
127	0xbcd3c77d	-0.02585196
128	0xbd763951	-0.060113255
129	0xbd3d0c06	-0.046154045
130	0x3d3302c3	0.043703806
131	0xbca4ec3c	-0.020132177
132	0xbceead32	-0.02913532
133	0x3cbc0d3f	0.022955535
134	0xbd0bfff5	-0.034179647
135	0x3cc0073f	0.023440955
136	0xbd2f20cf	-0.042755898
137	0xbcac7670	-0.02105257
138	0x3c854feb	0.01627346
139	0x3d2b3d63	0.04180659
140	0xbc5fe396	-0.013665101
141	0xbd3e0d1a	-0.046399213
142	0x3cf927cf	0.03041449
143	0x3c219430	0.009861991
144	0x3d041c6f	0.03225368
145	0xbd7d87d6	-0.06189712
146	0xbc4467e9	-0.011987665
147	0x3b974944	0.0046168882
148	0xbd2592a0	-0.040423036
149	0x3c58b8ab	0.013227622
150	0xbbc7e712	-0.006100544
151	0xbd4c1204	-0.04982187
152	0xbcebc372	-0.028779719
153	0x3dcdc43d	0.10047195
154	0xbc817697	-0.015803618
155	0x3d0ddea5	0.03463616
156	0xbdb1fa53	-0.08690324
157	0xbce6edb0	-0.02818951
158	0x3d8b9204	0.0681496
159	0x3d7d8645	0.061895628
160	0xbc2f656c	-0.010705333
161	0x3cb5be7a	0.022185553
162	0x3a07ed2b	0.0005185182
163	0xbd152a63	-0.036417376
164	0x3d47fe13	0.04882629
165	0x3d9023f4	0.070381075
166	0x3c3c35ca	0.011487434
167	0x3da508c4	0.080583125
168	0x3d0d6b9e	0.03452646
169	0xbc689f53	-0.014198142
170	0x3dce259d	0.10065768
171	0x3d693409	0.05693439
172	0x3cafb287	0.021447433
173	0x3c96e29d	0.018418605
174	0x3d509a5c	0.05092846
175	0xbd833eaf	-0.0640844
176	0x3ca8b2f6	0.020593148
177	0x3c75a62e	0.014993234
178	0xbd36df2f	-0.04464644
179	0x3d617cc6	0.055050634
180	0xbd2f5f18	-0.042815298
181	0xb9b95d34	-0.0003535539
182	0x3d4d8735	0.05017777
183	0x3d010a17	0.031503763
184	0xbd4b9b5a	-0.0497087
185	0xbc80c0fa	-0.015717018
186	0xbcae76d7	-0.021296902
187	0x3cce9b44	0.02522052
188	0xbc1b7b4f	-0.009489848
189	0x3db26fe5	0.087127484
190	0xbd4d654d	-0.050145436
191	0x3c51a00b	0.012794505
192	0x3ccf554f	0.025309233
193	0xbcc37eb7	-0.023864133
194	0xbb132ff7	-0.002245901
195	0xbd64d9b8	-0.055871695
196	0xbca250bc	-0.019813888
197	0xbd78b153	-0.060715985
198	0xbc1ef1d7	-0.009701214
199	0xbcb2294e	-0.021748211
200	0xbcbb1f0a	-0.022841949
201	0x3cc7f89d	0.02441054
202	0x3cc7ba35	0.024380783
203	0xbced93f6	-0.029001217
204	0xbd18ae40	-0.037275553
205	0xbc7b1e41	-0.015327037
206	0x3d6a0fcf	0.057143982
207	0x3c759bdd	0.014990774
208	0xbd5321b3	-0.05154581
209	0xbd0489f3	-0.03235812
210	0xbd654c44	-0.055980936
211	0xbd073fc7	-0.033019807
212	0xb8df6f3d	-0.000106541884
213	0x3d59c800	0.05316925
214	0xbdbbdf8f	-0.091735
215	0x3d1c0d73	0.038098764
216	0xbd670a28	-0.05640617
217	0x3d35959a	0.044332124
218	0xbd4321ba	-0.047639586
219	0xbd2e57cf	-0.04256421
220	0x3c800a47	0.0156299
221	0xbcddaea6	-0.027060818
222	0xbc8f4ffc	-0.017494194
223	0xbca06263	-0.019578164
224	0x3d2179af	0.039422687
225	0x3cbe455f	0.023226438
226	0x3b1eb37b	0.0024215865
227	0x3b0beedf	0.0021352095
228	0x3c0c23e9	0.0085534835
229	0xbca3658b	-0.01994588
230	0x399263d9	0.00027921682
231	0xbd9a8cc4	-0.0754638
232	0xbc576538	-0.013146691
233	0xbd32c19e	-0.04364168
234	0x3bd76c43	0.006574185
235	0x3d90b3d4	0.070655495
236	0xbd1ee00c	-0.038787887
237	0xbc649d44	-0.013953511
238	0x3d4f9b27	0.050685074
239	0xbcdfaf11	-0.027305158
240	0xbd3ef72b	-0.046622436
241	0x3d33a074	0.043854192
242	0x3cd17a1a	0.025570918
243	0x3cc30e30	0.023810476
244	0x3cc80ff9	0.024421679
245	0xbc8969f8	-0.016774163
246	0x3d1455eb	0.03621475
247	0x3c1f4f07	0.009723431
248	0x3c8fb8c8	0.017544165
249	0xbd440501	-0.047856335
250	0xbc126ceb	-0.008937101
251	0x3cb5a0d1	0.02217141
252	0x3d84f25d	0.064915396
253	0x3cd10feb	0.025520286
254	0x3dde085a	0.10841437
255	0x3bce4ea0	0.006295994

net.2.bias f4 [128]
0	0xbcd15fdb	-0.025558403
1	0x3c8b4d6e	0.017004695
2	0x3ca6a576	0.02034257
3	0xbd3c5e87	-0.045988586
4	0x3d5d7707	0.05406859
5	0xbd01132e	-0.03151243
6	0xbcf668df	-0.030079303
7	0x3c72efd9	0.014827692
8	0xbcf401db	-0.029786041
9	0xbd26628a	-0.040621318
10	0x3d81afa5	0.0633233
11	0xbc757eb9	-0.014983826
12	0xbb60257a	-0.0034202025
13	0x3c5af334	0.013363648
14	0x3ba7eab8	0.005124416
15	0x3d892254	0.06696001
16	0x3cbb4cd9	0.022863792
17	0x3d4451ae	0.04792946
18	0x3d568ed5	0.05238231
19	0xbd41f49e	-0.047352426
20	0x3c725e4d	0.014792991
21	0x3d83181b	0.06401082
22	0xbd8cbc42	-0.06871845
23	0xbbb5569c	-0.0055340063
24	0x3cf50b09	0.029912489
25	0xba5327e3	-0.0008054955
26	0x3d7e1d97	0.062039938
27	0x3c5e3e79	0.013564699
28	0xbcc4ea4b	-0.0240375
29	0x3d001358	0.031268448
30	0xbd8518c6	-0.06498866
31	0xbcf42259	-0.029801534
32	0x3d873d14	0.066034466
33	0xbc134e41	-0.008990825
34	0x3c674114	0.014114637
35	0xbcce490e	-0.02518132
36	0xbd2b0b4f	-0.04175883
37	0xbce9a097	-0.028518958
38	0x3d18fa5d	0.03734814
39	0x3ce39766	0.027782153
40	0x3982df4d	0.00024961904
41	0xbd0f5c0b	-0.03499989
42	0x3aebc539	0.0017987854
43	0xbc6c718d	-0.0144313695
44	0xbbf3d010	-0.0074405745
45	0x3c56f28b	0.01311935
46	0xbc05872c	-0.008149903
47	0xbd566349	-0.05234078
48	0xbd17696b	-0.03696577
49	0xbd6ac7df	-0.05731952
50	0x3c2cc10f	0.010544076
51	0xbc419562	-0.011815401
52	0x3d40e5e8	0.047094256
53	0xbc50bd14	-0.012740392
54	0xbd23ecf4	-0.040020898
55	0x3ca25302	0.019814972
56	0x3d3e33b4	0.046436027
57	0x3c7611a4	0.015018854
58	0x3c60fc25	0.013731991
59	0x3d85d675	0.06535045
60	0xbd13fff3	-0.036132764
61	0x3d79e530	0.061009586
62	0xbd6dc539	-0.058049414
63	0x3c682b85	0.014170532
64	0xbb925724	-0.0044659544
65	0xbd097425	-0.03355803
66	0xbd01455b	-0.031560283
67	0xbd2f11ca	-0.042741574
68	0xbd133a4d	-0.03594427
69	0x3d643ff2	0.055725046
70	0x3c3cde64	0.011527631
71	0x3c912b51	0.01772085
72	0x3d496614	0.049169615
73	0x3d18dbd8	0.037319034
74	0x3cff9278	0.031197771
75	0xbbd27e19	-0.0064237234
76	0xbd636147	-0.055512693
77	0xbd0bd840	-0.03414178
78	0x3d25d06e	0.040481977
79	0x3d5721b0	0.05252236
80	0xbc4cc81c	-0.012498882
81	0xbd442152	-0.04788334
82	0xbd80e4ba	-0.06293626
83	0xbd00eb21	-0.031474236
84	0xbcb63905	-0.022243986
85	0x3d54322d	0.051805664
86	0x3cacbf48	0.021087304
87	0xbcf8f3ee	-0.030389752
88	0x397a2fed	0.00023859712
89	0x3cd3f65c	0.02587431
90	0x3a9fb3a4	0.0012184274
91	0xbd3259c8	-0.043542653
92	0x3ca42a36	0.020039659
93	0x3d8284fa	0.063730195
94	0xbd4ca756	-0.04996427
95	0xbd8e2bef	-0.069419734
96	0xbd5a1099	-0.053238485
97	0xbcd0648f	-0.025438575
98	0xbd963a14	-0.07335296
99	0x3d17e708	0.037085563
100	0xbc26d05a	-0.010181511
101	0x3cc70832	0.0242959
102	0xbd93b26f	-0.07211768
103	0x39cae9c9	0.00038702626
104	0x3cbd4661	0.023104848
105	0xbd8bd2d2	-0.0682732
106	0x3c8fad8c	0.017538808
107	0x3d0b8a32	0.03406734
108	0x3d30169c	0.042990312
109	0x3c953aa1	0.018216433
110	0x3be5181c	0.0069913995
111	0xbd7b12ea	-0.061297335
112	0x3d489f9b	0.048980337
113	0x3c44c56b	0.012009959
114	0xbca62570	-0.020281523
115	0xbc8b5b47	-0.017011298
116	0x3d16e6e6	0.036841296
117	0xbcc2107f	-0.023689507
118	0xbc0a95ef	-0.0084585985
119	0xbc997722	-0.018733565
120	0x3c955aed	0.018231833
121	0xbc58e84c	-0.013238978
122	0xbd109332	-0.035296626
123	0x3d856354	0.06513086
124	0xbaeee970	-0.0018227529
125	0x3cfd71e0	0.030938089
126	0x3cbfdd20	0.02342087
127	0xbc073dd8	-0.008254491
